trained-models/ear5_INR/inr_model.pt (torch, 270241 bytes, 9 tensors)

frequency_matrix f4 [128, 3]
0	0xc04633e3	-3.096917
1	0xc083b868	-4.1162605
2	0xc00a3736	-2.1596198
3	0xc0280c25	-2.6257412
4	0xc00a232f	-2.1583974
5	0xbf5d0bf2	-0.8634635
6	0x4097b3c9	4.7406964
7	0x3f41c0eb	0.75684994
8	0x40158e08	2.336794
9	0xbeb62772	-0.3557697
10	0x3fbe08bf	1.4846419
11	0x4047d20d	3.1221955
12	0xc01a028b	-2.4064052
13	0x3fdffcdf	1.7499045
14	0xc01f40a2	-2.4883199
15	0x3ffe9091	1.9887868
16	0x3fb22eba	1.392051
17	0x3f2096b8	0.6272998
18	0xbd80fbd8	-0.062980354
19	0xbf40da74	-0.75333333
20	0x4036eaba	2.8580766
21	0xbef74895	-0.48297563
22	0x3fcb8bf5	1.5902086
23	0xbf931350	-1.1490269
24	0xbf30f988	-0.69130754
25	0xbfa22087	-1.2666177
26	0xc011464e	-2.269916
27	0xbfd2f405	-1.6480719
28	0xc02ad372	-2.6691556
29	0xc00ec60b	-2.2308376
30	0xc02c9f21	-2.6972125
31	0xbfb9e270	-1.4522228
32	0xbf1ba78d	-0.6080254
33	0xbe70c0b5	-0.23511012
34	0xc055430c	-3.3322172
35	0xc02bbc63	-2.6833732
36	0x3ef2b5d6	0.47404355
37	0xbede8fe6	-0.4346916
38	0xbf34bfdb	-0.7060525
39	0x3f5cce9f	0.8625278
40	0x3fd18137	1.6367558
41	0x3f8b03c8	1.0860529
42	0x401d2bb1	2.4557917
43	0x403ba0f0	2.9316978
44	0xbfda81cd	-1.7070862
45	0xbf63d8b3	-0.8900253
46	0x3ff368cf	1.901636
47	0xc071cb8f	-3.7780492
48	0x400101c0	2.0157318
49	0xbf974090	-1.1816578
50	0xbec68eb4	-0.3878075
51	0xc04c333b	-3.1906269
52	0xbf70cdba	-0.94063914
53	0xbd8659bb	-0.065600835
54	0x3eb02dcd	0.34409943
55	0xbff571bd	-1.9175335
56	0xc04782a1	-3.117348
57	0xc0039e19	-2.0565245
58	0xc08451f0	-4.135002
59	0x4004e848	2.0766773
60	0xc04db3a3	-3.2140892
61	0x3edb3056	0.42810315
62	0xbebf57d0	-0.37371683
63	0x3e46ba1a	0.1940693
64	0xc062da3c	-3.54457
65	0x3fd8cad9	1.6936904
66	0xc030cdf3	-2.7625701
67	0xbfab2e5d	-1.3373524
68	0xbf27f1c4	-0.6560328
69	0x3f8ba74c	1.091043
70	0x3f162493	0.5864956
71	0xc071cb8d	-3.7780488
72	0x402ab0d7	2.6670434
73	0xbe936087	-0.28784582
74	0xbf4fe9cb	-0.81216115
75	0xc0b0e6b1	-5.5281606
76	0xbfde410b	-1.73636
77	0x3fda3982	1.70488
78	0xc021fdb3	-2.5311096
79	0xbdcfb5dd	-0.101421095
80	0x3febe4bf	1.8429183
81	0xc0816650	-4.0437393
82	0x3f9b5ff4	1.2138658
83	0xbf666e7c	-0.90012336
84	0xc01a6678	-2.4125042
85	0x3faa5664	1.3307614
86	0x3f8e2473	1.1104873
87	0xbc8c07c5	-0.017093549
88	0x3f6098ad	0.87732965
89	0x409fb4f8	4.990841
90	0x3e4f96fc	0.2027244
91	0xbf9f241e	-1.2432897
92	0xbf7faa35	-0.9986909
93	0x3d2a6d79	0.041608308
94	0xbff6b74a	-1.9274685
95	0x3ea526f6	0.32256287
96	0xbfc7d30f	-1.5611285
97	0xc059694c	-3.3970518
98	0x401f2ac7	2.486986
99	0x3ffd397e	1.978317
100	0x3f745245	0.95438033
101	0x4007fa7e	2.1246638
102	0x3f08e132	0.5346862
103	0x3edc2bf9	0.43002298
104	0xbf3f62e7	-0.7476029
105	0xc0b6d497	-5.713451
106	0x3d030297	0.03198489
107	0xc06afb98	-3.671606
108	0x401afbc4	2.4216166
109	0x402d2907	2.705629
110	0xc0954284	-4.6643696
111	0x3f4403f0	0.7656851
112	0x3fadf42d	1.3590142
113	0x404f3e67	3.2381837
114	0x40395dd4	2.8963518
115	0xc03cd762	-2.950646
116	0xbf140316	-0.5781721
117	0xbfd397b4	-1.6530671
118	0x40096151	2.1465647
119	0x402477d6	2.5698142
120	0xbf7b9ab9	-0.98282963
121	0x408da531	4.426415
122	0xc02fc61c	-2.7464666
123	0x3e8a5a75	0.27022138
124	0xbe252110	-0.16125894
125	0xbf76182b	-0.9613063
126	0x3e2000a9	0.15625252
127	0xbfa29b8c	-1.2703719
128	0xbf353eb8	-0.70798826
129	0x3f94130e	1.1568315
130	0x3f24e847	0.6441693
131	0x40018270	2.0235863
132	0x406fab61	3.7448351
133	0x3fd6c508	1.6778879
134	0x403f6d4b	2.9910457
135	0xc0801cd1	-4.0035176
136	0xbf8681a0	-1.0508308
137	0xc0739c9e	-3.8064342
138	0xbf0a58f4	-0.5404198
139	0x3d00f0e3	0.031479727
140	0x40aa1e8e	5.31623
141	0x3ecc3080	0.39880753
142	0xbfc82180	-1.5635223
143	0x40200c5e	2.5007548
144	0x3f1536c2	0.5828668
145	0xbe3b0225	-0.18262537
146	0x3fc04772	1.5021803
147	0xc015c476	-2.340116
148	0x4092997e	4.581237
149	0xbf6941ee	-0.91116226
150	0x3d02339c	0.0317875
151	0x3f8f222e	1.1182306
152	0x3fc294e5	1.5201689
153	0xbfb6cfb7	-1.428214
154	0x3e92173b	0.28533348
155	0xbe272e33	-0.16326217
156	0x3e07380f	0.13204978
157	0xbf9aa001	-1.2080079
158	0xbf702fc4	-0.93822885
159	0x3f5a06e3	0.8516676
160	0x3fef4e38	1.8695745
161	0xbff8b6fc	-1.9430842
162	0xc027d2d0	-2.622242
163	0x3f9db68d	1.2321335
164	0xbfd17f3b	-1.6366953
165	0x3fca02d9	1.5782119
166	0x4031db37	2.7790048
167	0x3f84ed72	1.0384963
168	0x4053322f	3.299938
169	0x405d2b51	3.4557688
170	0xbf7d8c86	-0.99042547
171	0xbfe39fb6	-1.7783115
172	0x40732ebb	3.7997272
173	0xbf39a33e	-0.7251471
174	0xbf313411	-0.6922007
175	0x3fb73fb0	1.4316311
176	0x3fc4e6b0	1.53829
177	0x400540e8	2.0820866
178	0xbf8748d4	-1.05691
179	0xc081510f	-4.041145
180	0x3ffe517a	1.9868615
181	0x3fecc40f	1.8497332
182	0x3f03809e	0.5136813
183	0x3fd0b217	1.6304349
184	0xc02f1353	-2.7355545
185	0x3e35bf03	0.17748646
186	0xbfc2eed4	-1.5229135
187	0xbf712cda	-0.94209063
188	0x3fc9874c	1.5744414
189	0x3f5331fe	0.8249816
190	0x3f61bb17	0.881761
191	0x3e919c7b	0.28439698
192	0x407c91e1	3.9464037
193	0xbf9ca90f	-1.2239093
194	0xc028e255	-2.6388142
195	0xbeeb57d4	-0.45965445
196	0x3dc9584c	0.098312944
197	0x400d9ff5	2.212888
198	0xbffdaf9f	-1.981922
199	0x3f19d549	0.6009107
200	0x3f9876da	1.1911271
201	0x3fec3a38	1.8455267
202	0x4004b0e7	2.0732973
203	0x402ac96e	2.6685443
204	0xbf6a5277	-0.9153208
205	0x3f428119	0.7597824
206	0x3ed37fd9	0.41308478
207	0x404b6a20	3.1783524
208	0xc016594f	-2.349201
209	0xc0130634	-2.2972536
210	0xbe61c632	-0.22048262
211	0x402b5c15	2.6774952
212	0x3fc6cd16	1.5531337
213	0x403d2390	2.9552956
214	0x3fbc4394	1.4708123
215	0xbfa80ec5	-1.3129507
216	0x4042fed2	3.046803
217	0xbfc673f0	-1.5504131
218	0x3f4a632a	0.7905756
219	0x4021a82e	2.5258899
220	0x3f810a5b	1.0081285
221	0x3f88f4ee	1.0699747
222	0x3f240a1b	0.6407792
223	0x3edea915	0.43488374
224	0x4027ec20	2.623787
225	0xbf880b5a	-1.0628464
226	0xbfb33570	-1.4000683
227	0x3f5d58e5	0.8646377
228	0xbf0ebb22	-0.5575429
229	0xbece09ee	-0.4024195
230	0xbed3efbe	-0.41393846
231	0xc088172b	-4.252828
232	0xbffdc334	-1.9825196
233	0xbff59e00	-1.9188843
234	0xc010342f	-2.253185
235	0xbd90f857	-0.07078617
236	0x3ff30975	1.8987261
237	0xc08146e2	-4.0399027
238	0x3edcea46	0.43147486
239	0xc067682d	-3.6157334
240	0x3fb14b32	1.3851073
241	0x4001840f	2.0236852
242	0xbdf34d6d	-0.11880002
243	0x404a0d4c	3.1570616
244	0xbf8be92f	-1.0930537
245	0x401193d2	2.2746472
246	0x3f4498b3	0.767955
247	0x4034728c	2.8194914
248	0xbfbe0ad3	-1.4847053
249	0x3ebd75b3	0.3700386
250	0xbdb5ff2a	-0.08886559
251	0xbfda2579	-1.7042686
252	0xbf4b22e8	-0.7935014
253	0x4020ce46	2.51259
254	0x4000a6fa	2.0101914
255	0x3e0b2dae	0.13591644

encoding.frequency_matrix f4 [128, 3]
0	0xc04633e3	-3.096917
1	0xc083b868	-4.1162605
2	0xc00a3736	-2.1596198
3	0xc0280c25	-2.6257412
4	0xc00a232f	-2.1583974
5	0xbf5d0bf2	-0.8634635
6	0x4097b3c9	4.7406964
7	0x3f41c0eb	0.75684994
8	0x40158e08	2.336794
9	0xbeb62772	-0.3557697
10	0x3fbe08bf	1.4846419
11	0x4047d20d	3.1221955
12	0xc01a028b	-2.4064052
13	0x3fdffcdf	1.7499045
14	0xc01f40a2	-2.4883199
15	0x3ffe9091	1.9887868
16	0x3fb22eba	1.392051
17	0x3f2096b8	0.6272998
18	0xbd80fbd8	-0.062980354
19	0xbf40da74	-0.75333333
20	0x4036eaba	2.8580766
21	0xbef74895	-0.48297563
22	0x3fcb8bf5	1.5902086
23	0xbf931350	-1.1490269
24	0xbf30f988	-0.69130754
25	0xbfa22087	-1.2666177
26	0xc011464e	-2.269916
27	0xbfd2f405	-1.6480719
28	0xc02ad372	-2.6691556
29	0xc00ec60b	-2.2308376
30	0xc02c9f21	-2.6972125
31	0xbfb9e270	-1.4522228
32	0xbf1ba78d	-0.6080254
33	0xbe70c0b5	-0.23511012
34	0xc055430c	-3.3322172
35	0xc02bbc63	-2.6833732
36	0x3ef2b5d6	0.47404355
37	0xbede8fe6	-0.4346916
38	0xbf34bfdb	-0.7060525
39	0x3f5cce9f	0.8625278
40	0x3fd18137	1.6367558
41	0x3f8b03c8	1.0860529
42	0x401d2bb1	2.4557917
43	0x403ba0f0	2.9316978
44	0xbfda81cd	-1.7070862
45	0xbf63d8b3	-0.8900253
46	0x3ff368cf	1.901636
47	0xc071cb8f	-3.7780492
48	0x400101c0	2.0157318
49	0xbf974090	-1.1816578
50	0xbec68eb4	-0.3878075
51	0xc04c333b	-3.1906269
52	0xbf70cdba	-0.94063914
53	0xbd8659bb	-0.065600835
54	0x3eb02dcd	0.34409943
55	0xbff571bd	-1.9175335
56	0xc04782a1	-3.117348
57	0xc0039e19	-2.0565245
58	0xc08451f0	-4.135002
59	0x4004e848	2.0766773
60	0xc04db3a3	-3.2140892
61	0x3edb3056	0.42810315
62	0xbebf57d0	-0.37371683
63	0x3e46ba1a	0.1940693
64	0xc062da3c	-3.54457
65	0x3fd8cad9	1.6936904
66	0xc030cdf3	-2.7625701
67	0xbfab2e5d	-1.3373524
68	0xbf27f1c4	-0.6560328
69	0x3f8ba74c	1.091043
70	0x3f162493	0.5864956
71	0xc071cb8d	-3.7780488
72	0x402ab0d7	2.6670434
73	0xbe936087	-0.28784582
74	0xbf4fe9cb	-0.81216115
75	0xc0b0e6b1	-5.5281606
76	0xbfde410b	-1.73636
77	0x3fda3982	1.70488
78	0xc021fdb3	-2.5311096
79	0xbdcfb5dd	-0.101421095
80	0x3febe4bf	1.8429183
81	0xc0816650	-4.0437393
82	0x3f9b5ff4	1.2138658
83	0xbf666e7c	-0.90012336
84	0xc01a6678	-2.4125042
85	0x3faa5664	1.3307614
86	0x3f8e2473	1.1104873
87	0xbc8c07c5	-0.017093549
88	0x3f6098ad	0.87732965
89	0x409fb4f8	4.990841
90	0x3e4f96fc	0.2027244
91	0xbf9f241e	-1.2432897
92	0xbf7faa35	-0.9986909
93	0x3d2a6d79	0.041608308
94	0xbff6b74a	-1.9274685
95	0x3ea526f6	0.32256287
96	0xbfc7d30f	-1.5611285
97	0xc059694c	-3.3970518
98	0x401f2ac7	2.486986
99	0x3ffd397e	1.978317
100	0x3f745245	0.95438033
101	0x4007fa7e	2.1246638
102	0x3f08e132	0.5346862
103	0x3edc2bf9	0.43002298
104	0xbf3f62e7	-0.7476029
105	0xc0b6d497	-5.713451
106	0x3d030297	0.03198489
107	0xc06afb98	-3.671606
108	0x401afbc4	2.4216166
109	0x402d2907	2.705629
110	0xc0954284	-4.6643696
111	0x3f4403f0	0.7656851
112	0x3fadf42d	1.3590142
113	0x404f3e67	3.2381837
114	0x40395dd4	2.8963518
115	0xc03cd762	-2.950646
116	0xbf140316	-0.5781721
117	0xbfd397b4	-1.6530671
118	0x40096151	2.1465647
119	0x402477d6	2.5698142
120	0xbf7b9ab9	-0.98282963
121	0x408da531	4.426415
122	0xc02fc61c	-2.7464666
123	0x3e8a5a75	0.27022138
124	0xbe252110	-0.16125894
125	0xbf76182b	-0.9613063
126	0x3e2000a9	0.15625252
127	0xbfa29b8c	-1.2703719
128	0xbf353eb8	-0.70798826
129	0x3f94130e	1.1568315
130	0x3f24e847	0.6441693
131	0x40018270	2.0235863
132	0x406fab61	3.7448351
133	0x3fd6c508	1.6778879
134	0x403f6d4b	2.9910457
135	0xc0801cd1	-4.0035176
136	0xbf8681a0	-1.0508308
137	0xc0739c9e	-3.8064342
138	0xbf0a58f4	-0.5404198
139	0x3d00f0e3	0.031479727
140	0x40aa1e8e	5.31623
141	0x3ecc3080	0.39880753
142	0xbfc82180	-1.5635223
143	0x40200c5e	2.5007548
144	0x3f1536c2	0.5828668
145	0xbe3b0225	-0.18262537
146	0x3fc04772	1.5021803
147	0xc015c476	-2.340116
148	0x4092997e	4.581237
149	0xbf6941ee	-0.91116226
150	0x3d02339c	0.0317875
151	0x3f8f222e	1.1182306
152	0x3fc294e5	1.5201689
153	0xbfb6cfb7	-1.428214
154	0x3e92173b	0.28533348
155	0xbe272e33	-0.16326217
156	0x3e07380f	0.13204978
157	0xbf9aa001	-1.2080079
158	0xbf702fc4	-0.93822885
159	0x3f5a06e3	0.8516676
160	0x3fef4e38	1.8695745
161	0xbff8b6fc	-1.9430842
162	0xc027d2d0	-2.622242
163	0x3f9db68d	1.2321335
164	0xbfd17f3b	-1.6366953
165	0x3fca02d9	1.5782119
166	0x4031db37	2.7790048
167	0x3f84ed72	1.0384963
168	0x4053322f	3.299938
169	0x405d2b51	3.4557688
170	0xbf7d8c86	-0.99042547
171	0xbfe39fb6	-1.7783115
172	0x40732ebb	3.7997272
173	0xbf39a33e	-0.7251471
174	0xbf313411	-0.6922007
175	0x3fb73fb0	1.4316311
176	0x3fc4e6b0	1.53829
177	0x400540e8	2.0820866
178	0xbf8748d4	-1.05691
179	0xc081510f	-4.041145
180	0x3ffe517a	1.9868615
181	0x3fecc40f	1.8497332
182	0x3f03809e	0.5136813
183	0x3fd0b217	1.6304349
184	0xc02f1353	-2.7355545
185	0x3e35bf03	0.17748646
186	0xbfc2eed4	-1.5229135
187	0xbf712cda	-0.94209063
188	0x3fc9874c	1.5744414
189	0x3f5331fe	0.8249816
190	0x3f61bb17	0.881761
191	0x3e919c7b	0.28439698
192	0x407c91e1	3.9464037
193	0xbf9ca90f	-1.2239093
194	0xc028e255	-2.6388142
195	0xbeeb57d4	-0.45965445
196	0x3dc9584c	0.098312944
197	0x400d9ff5	2.212888
198	0xbffdaf9f	-1.981922
199	0x3f19d549	0.6009107
200	0x3f9876da	1.1911271
201	0x3fec3a38	1.8455267
202	0x4004b0e7	2.0732973
203	0x402ac96e	2.6685443
204	0xbf6a5277	-0.9153208
205	0x3f428119	0.7597824
206	0x3ed37fd9	0.41308478
207	0x404b6a20	3.1783524
208	0xc016594f	-2.349201
209	0xc0130634	-2.2972536
210	0xbe61c632	-0.22048262
211	0x402b5c15	2.6774952
212	0x3fc6cd16	1.5531337
213	0x403d2390	2.9552956
214	0x3fbc4394	1.4708123
215	0xbfa80ec5	-1.3129507
216	0x4042fed2	3.046803
217	0xbfc673f0	-1.5504131
218	0x3f4a632a	0.7905756
219	0x4021a82e	2.5258899
220	0x3f810a5b	1.0081285
221	0x3f88f4ee	1.0699747
222	0x3f240a1b	0.6407792
223	0x3edea915	0.43488374
224	0x4027ec20	2.623787
225	0xbf880b5a	-1.0628464
226	0xbfb33570	-1.4000683
227	0x3f5d58e5	0.8646377
228	0xbf0ebb22	-0.5575429
229	0xbece09ee	-0.4024195
230	0xbed3efbe	-0.41393846
231	0xc088172b	-4.252828
232	0xbffdc334	-1.9825196
233	0xbff59e00	-1.9188843
234	0xc010342f	-2.253185
235	0xbd90f857	-0.07078617
236	0x3ff30975	1.8987261
237	0xc08146e2	-4.0399027
238	0x3edcea46	0.43147486
239	0xc067682d	-3.6157334
240	0x3fb14b32	1.3851073
241	0x4001840f	2.0236852
242	0xbdf34d6d	-0.11880002
243	0x404a0d4c	3.1570616
244	0xbf8be92f	-1.0930537
245	0x401193d2	2.2746472
246	0x3f4498b3	0.767955
247	0x4034728c	2.8194914
248	0xbfbe0ad3	-1.4847053
249	0x3ebd75b3	0.3700386
250	0xbdb5ff2a	-0.08886559
251	0xbfda2579	-1.7042686
252	0xbf4b22e8	-0.7935014
253	0x4020ce46	2.51259
254	0x4000a6fa	2.0101914
255	0x3e0b2dae	0.13591644

forward_layers.0.weight f4 [128, 256]
0	0x3b64b9f5	0.0034900878
1	0xbd2dad9d	-0.0424019
2	0x3ba61c2c	0.0050692763
3	0xbd1c01f7	-0.03808781
4	0x3ac572b1	0.0015064088
5	0xbcc0a6e4	-0.02351708
6	0x3d60ec46	0.054912828
7	0xbcd50ca2	-0.026007
8	0x3d614f0e	0.055007033
9	0xbcb28125	-0.021790097
10	0x3d3ee3ed	0.046604086
11	0xbc910063	-0.01770038
12	0xb9d201ba	-0.00040055608
13	0x3d17da67	0.03707352
14	0x3d3c793c	0.046014056
15	0x3c8bb76c	0.017055236
16	0xbcfe4419	-0.03103833
17	0x3d00f815	0.03148659
18	0x3bb7edf5	0.0056130835
19	0xbcd78947	-0.026310576
20	0x3d120217	0.035646524
21	0xbccd7f51	-0.025085123
22	0x3d44fa0e	0.048090033
23	0x3cf4da3d	0.02988922
24	0xbcab30b7	-0.020897252
25	0x3cee664f	0.029101519
26	0x3d3b9d4f	0.045804318
27	0xbd1b2a19	-0.037881944
28	0xbd20a86b	-0.039223116
29	0xbc90c34d	-0.017671252
30	0xbd156db1	-0.036481563
31	0x3cce8f42	0.025214795
32	0x3c1fc539	0.009751611
33	0xbd87be86	-0.06628136
34	0x3d436842	0.04770685
35	0x3b432baa	0.0029780664
36	0x3d4dfedd	0.050291885
37	0xbcc6a7a9	-0.024249868
38	0xbd6b8c14	-0.057506636
39	0xbd0a8251	-0.033815686
40	0xbcf86ccb	-0.030325314
41	0xbd900549	-0.07032258
42	0xbca367d1	-0.019946964
43	0x3d5f3d50	0.05450183
44	0xbd8d60bc	-0.06903216
45	0xbc53fb3a	-0.012938315
46	0x3bac4529	0.005257268
47	0xbc980b11	-0.018559964
48	0x3d850568	0.06495172
49	0x3bc48458	0.005997222
50	0x3d2d18c5	0.04225995
51	0xbd192bc8	-0.03739527
52	0xbc6ef616	-0.014585039
53	0xbca0d828	-0.019634321
54	0x3d213223	0.039354455
55	0x3d97b426	0.074074075
56	0xbd2acb46	-0.041697763
57	0xbcb34630	-0.021884054
58	0x3d455673	0.048178148
59	0xbd065f47	-0.032805707
60	0x3d233774	0.039847806
61	0x3d31d8ae	0.043419532
62	0xbd541e3b	-0.051786643
63	0x3d7a1f8f	0.061065253
64	0x3cf25c9c	0.029585175
65	0x3c5e9ed5	0.013587673
66	0x3ce3cd9a	0.027808
67	0xbcb66e8f	-0.022269515
68	0xbc34e5e7	-0.011041141
69	0xbd20a107	-0.039216068
70	0x3cf5dbed	0.030012095
71	0x3cab4139	0.020905124
72	0xbd3f965e	-0.04677426
73	0x3d827b69	0.06371195
74	0xbcd77ac4	-0.026303656
75	0xbcc4e46d	-0.024034703
76	0xbcc42c4d	-0.023946906
77	0x3d553d8a	0.05206064
78	0x3cc92b04	0.024556644
79	0x3ce9f31f	0.028558312
80	0xbc94532a	-0.018106062
81	0xbc2538fe	-0.010084389
82	0x3ce421a8	0.02784808
83	0x3d17f6f4	0.037100747
84	0x3c21aa29	0.0098672295
85	0xba661c77	-0.00087780453
86	0xbd079ff6	-0.033111535
87	0x3cce09ad	0.025151098
88	0x3ca0ce21	0.01962954
89	0xbc92bbab	-0.017911753
90	0x3c012472	0.007882224
91	0xbd385b5e	-0.04500901
92	0xbd8211e2	-0.06351067
93	0x3ce1c0dd	0.027557785
94	0x3c8bb8c1	0.017055871
95	0xbcfa4c1f	-0.030553875
96	0x3c67c4c0	0.01414603
97	0x3c271d1d	0.010199812
98	0xbd3ea0dd	-0.04654013
99	0xbd7d3899	-0.061821554
100	0xbd5739d0	-0.05254537
101	0xbc4c92f4	-0.012486208
102	0x3caaedec	0.020865403
103	0xbd183f4c	-0.03716974
104	0x3d0dae48	0.034590036
105	0xbb8aad26	-0.0042320667
106	0x3cd02da1	0.025412383
107	0x3c43338a	0.011914143
108	0xbd5809a0	-0.052743554
109	0x3b5eba0a	0.00339854
110	0xbcecee5c	-0.028922252
111	0xbd25da19	-0.040491197
112	0xbc20256a	-0.009774545
113	0x383a8d0b	4.4477212e-05
114	0x3d057956	0.032586418
115	0xbd0cbe32	-0.034361072
116	0xbc0b0ce4	-0.00848696
117	0x3d8de5a8	0.06928569
118	0xbd37fd23	-0.044919144
119	0xbca8c41d	-0.020601327
120	0x3d0adbcc	0.03390102
121	0x3d285fa6	0.041106842
122	0x3d03fa0f	0.032220896
123	0x3cbb7f9a	0.022887994
124	0x3cf4b495	0.029871264
125	0x3cdc763f	0.026911853
126	0x3d648197	0.05578765
127	0xbc1975ab	-0.009366433
128	0xbc9f69f4	-0.019459702
129	0x3cecdc2f	0.028913585
130	0xbcc525c1	-0.024065854
131	0x3cdf791b	0.027279427
132	0xbd45785e	-0.048210494
133	0x3d8860e2	0.06659104
134	0xbcf195d2	-0.029490385
135	0xbcc52c83	-0.024069076
136	0x3c0d40ca	0.008621404
137	0x3d687d7e	0.056760304
138	0xbcddf037	-0.027092082
139	0xbd60af7c	-0.054854855
140	0xbd084524	-0.033269063
141	0xbd4643b9	-0.04840443
142	0x3d1c59bc	0.038171515
143	0xbb9a9a26	-0.004718083
144	0xbd18fbdd	-0.03734957
145	0x3d7dff1e	0.062010877
146	0xbcf551e8	-0.029946283
147	0x3d54217a	0.05178974
148	0x3b49172e	0.0030683982
149	0xbd660c1d	-0.056163896
150	0xbba12535	-0.0049177655
151	0xbd154c42	-0.03644968
152	0x3d9c1c77	0.07622617
153	0xbd76a196	-0.060212694
154	0x3c8a39ac	0.016873203
155	0x3d710967	0.058846857
156	0xbce1945a	-0.02753656
157	0x3d927762	0.07151677
158	0xbd2a9de1	-0.04165447
159	0xbd01f2dc	-0.03172575
160	0x3c8c2420	0.01710707
161	0x3cd32612	0.02577499
162	0xbd0c6219	-0.03427324
163	0xbd364b21	-0.044505242
164	0x3ca954b5	0.020670274
165	0xbc3f4f61	-0.01167664
166	0xbd64925f	-0.055803653
167	0xbda1c385	-0.078986205
168	0x3bc7faaa	0.0061028795
169	0x3d97a561	0.074045904
170	0x3cfa252b	0.030535301
171	0xbd8643ef	-0.06555926
172	0xbd7ecf16	-0.06220921
173	0x3cf53b6a	0.029935557
174	0x3c32ab4a	0.010905096
175	0x3d121d4b	0.035672467
176	0x3cfb8f28	0.03070791
177	0x3d7c40c0	0.061585188
178	0xbd4f0e3b	-0.05055068
179	0xbbdbdc2a	-0.006709595
180	0x3cedabe2	0.029012624
181	0xbb1c5f6b	-0.0023860584
182	0x3c70e9ae	0.014704151
183	0x3cb3a005	0.02192689
184	0xbd5a5afb	-0.053309422
185	0xbd25d342	-0.040484674
186	0xbc29f6a9	-0.01037375
187	0x3bd2b774	0.0064305607
188	0xbd6e449c	-0.0581709
189	0xbce203c8	-0.027589694
190	0x3d3b306f	0.045700487
191	0xbd0bd16f	-0.03413528
192	0xbc7d4028	-0.015457191
193	0x3c70ec84	0.014704827
194	0xbd1b5450	-0.037922204
195	0x3c850f49	0.01624264
196	0xbd5748a1	-0.0525595
197	0x3b955a4c	0.0045578834
198	0xbd3fee36	-0.046858035
199	0xbc3d0971	-0.011537896
200	0xbcdad845	-0.026714453
201	0x3d60d908	0.054894477
202	0x3da44bc8	0.080222666
203	0xbc3b3079	-0.011425131
204	0x3da97bdb	0.08275577
205	0xbd529c61	-0.051418666
206	0xbd1f6586	-0.03891518
207	0x3d4ca26e	0.049959593
208	0x3bbfa214	0.0058481786
209	0x3c67035f	0.014099925
210	0xbb23a098	-0.0024967548
211	0x3cb5efc7	0.022209061
212	0x3c13b352	0.009014921
213	0xbd26dc16	-0.040737234
214	0x3d014ab4	0.031565383
215	0x3d024a5d	0.0318092
216	0x3d462bd7	0.048381653
217	0xbd1f6ef2	-0.038924165
218	0x3d8ac587	0.067759566
219	0x3d1075be	0.035268538
220	0xbd2c7501	-0.04210377
221	0xbd557701	-0.052115444
222	0xbd226274	-0.039644673
223	0x3cfdbca4	0.03097374
224	0xbbe81957	-0.007083099
225	0xbd3e3ff6	-0.046447717
226	0xbd0a7285	-0.03380062
227	0xbd5483f1	-0.05188364
228	0x3d58611e	0.052826993
229	0xbd021f1e	-0.031767957
230	0x3d203f5a	0.039122917
231	0xbcad6149	-0.021164553
232	0xbd86255e	-0.06550096
233	0x3c2e6b3b	0.010645683
234	0x3c889c89	0.016676204
235	0xbce7bdce	-0.028288748
236	0xbbe54ea8	-0.006997902
237	0xbd43801c	-0.047729596
238	0xbd72f2b2	-0.059313484
239	0xbcc4dd69	-0.024031358
240	0xba465111	-0.00075651804
241	0x3c576a37	0.013147882
242	0xbcb54e75	-0.022132138
243	0x3cc145c5	0.023592839
244	0xbcf9de1b	-0.030501416
245	0x3d93c449	0.07215173
246	0xbc4202b7	-0.011841468
247	0x3d3f5c15	0.046718676
248	0xbcced316	-0.025247138
249	0xbd828f92	-0.0637504
250	0x3d0d305b	0.034469943
251	0x3cbb4041	0.022857787
252	0x3d4bf324	0.049792424
253	0x3d7211bf	0.059098955
254	0x3d6e669d	0.05820333
255	0xbcc8dabe	-0.024518367

forward_layers.0.bias f4 [128]
0	0x3d59a06d	0.05313151
1	0x3d2a5ddc	0.041593418
2	0x3d5f7c9e	0.054562204
3	0x3d161ba5	0.036647458
4	0xbccabd47	-0.024748458
5	0xbd668d5d	-0.05628716
6	0xbd4e2f8c	-0.050338313
7	0x3ceaedfa	0.02867793
8	0xbccaaae2	-0.024739686
9	0xbd0b197f	-0.03395986
10	0xbd461a17	-0.048364725
11	0x3c281271	0.010258303
12	0x3d2441cd	0.040101815
13	0xbc9d06bf	-0.019168256
14	0x3ca775dc	0.020441942
15	0x3d1cd759	0.03829131
16	0x3c459908	0.012060411
17	0xbc61981e	-0.013769178
18	0x3d890e1f	0.066921465
19	0x3cad879d	0.02118283
20	0xbb4559e5	-0.0030113396
21	0xbd229a99	-0.039698217
22	0x3b412420	0.0029470995
23	0x3b9a9734	0.004717732
24	0x3d450b36	0.048106395
25	0xbc7c7316	-0.015408298
26	0xbc8cfc09	-0.017210023
27	0x3c854762	0.01626939
28	0xbd2e1f10	-0.042510092
29	0xbc723ff9	-0.01478576
30	0x3c99d065	0.018776128
31	0xbd3451b6	-0.044023238
32	0x3d2955cf	0.0413416
33	0x3ce130e9	0.027489142
34	0x3cd342bf	0.025788663
35	0xbd0f640f	-0.035007533
36	0x3d682bea	0.056682505
37	0x3c02e626	0.007989442
38	0xbd14b4f4	-0.036305383
39	0x3d6f0db0	0.058362663
40	0x3d52b719	0.051444147
41	0xbd180427	-0.037113335
42	0x3d2e4f95	0.042556364
43	0x3bce46be	0.006295054
44	0x3d10c465	0.035343546
45	0xbab21230	-0.0013585743
46	0xbcef8e90	-0.029242784
47	0xbd28d717	-0.04122075
48	0x3d3af5c4	0.045644537
49	0xbc781ac9	-0.015143105
50	0xbcaaa20a	-0.02082922
51	0xbc31df66	-0.010856485
52	0x3c82af18	0.015952632
53	0x3cd58bbb	0.026067605
54	0x3d277f16	0.040892683
55	0x3cb0f418	0.021600768
56	0x3d75af86	0.059981845
57	0x3d26796e	0.040643148
58	0x3d06ae14	0.032880858
59	0x3bbd299a	0.0057727816
60	0x39500adc	0.00019840471
61	0xbc5306bd	-0.0128800245
62	0xba3ba071	-0.00071573915
63	0xbc5512bd	-0.013004956
64	0x3c37ad33	0.0112107275
65	0x3d40cb34	0.04706879
66	0xbb85965c	-0.004076762
67	0x3d38ea1f	0.04514515
68	0xbd2005ee	-0.039068155
69	0xbc75c43f	-0.015000402
70	0xbd089965	-0.033349413
71	0x3c12e3e6	0.008965468
72	0x3c4c6f0e	0.012477649
73	0x3d2caa2d	0.04215448
74	0xbb98f03b	-0.0046673096
75	0x3bf4f23e	0.0074751666
76	0x3c5c3c4c	0.01344211
77	0x3be8ea87	0.007108036
78	0xbc8ea3d4	-0.017412104
79	0xbae8ba88	-0.0017755786
80	0x3d80179e	0.062545046
81	0xbcfe192a	-0.031017859
82	0xbbfbb765	-0.0076817744
83	0xbcd63c57	-0.02615182
84	0xbb9561c6	-0.0045587746
85	0x3baebb0a	0.0053323554
86	0xbc18b532	-0.009320544
87	0x3d885a2e	0.066578254
88	0x3ca241b8	0.019806728
89	0x3d37f678	0.044912785
90	0x3d809bf2	0.06279744
91	0x3d199ae2	0.037501223
92	0xbbf69092	-0.0075245583
93	0x3bf54e8d	0.0074861706
94	0xbc841218	-0.016121909
95	0xbcd4e061	-0.025985898
96	0x3d198f5f	0.037490245
97	0x3cf62d6b	0.030050954
98	0x3d51fc91	0.051266257
99	0xbd65f0fd	-0.056138027
100	0x3d04ef1a	0.032454588
101	0xbd2b4176	-0.041810475
102	0xbd43078e	-0.047614627
103	0x3ce8d8be	0.028423663
104	0x3d40996a	0.047021307
105	0xbb3c19ba	-0.0028701858
106	0x3d098c8b	0.033581298
107	0x3d2de1f0	0.0424518
108	0xbcfe51c7	-0.031044854
109	0xbc45183f	-0.0120297065
110	0x3bb16fdb	0.0054149455
111	0x3d37094c	0.0446866
112	0x3d1a0e48	0.037611276
113	0xbd499839	-0.049217436
114	0x3c5565fa	0.013024801
115	0x3d37f619	0.04491243
116	0xbce19afe	-0.027539726
117	0x3d2d19e1	0.04226101
118	0xbc973662	-0.018458549
119	0x3c19632d	0.009362024
120	0x3c8c1bf2	0.01710317
121	0x3b9ab12a	0.0047208266
122	0xbcb13f08	-0.021636501
123	0x3d7ee746	0.06223228
124	0x3ca75973	0.020428395
125	0x3d718c19	0.0589715
126	0xbb3e120b	-0.0029002454
127	0xbd5ed1fd	-0.05439948

forward_layers.2.weight f4 [128, 128]
0	0x3da23f7b	0.07922264
1	0x3d95eafe	0.07320212
2	0xbd7434f7	-0.059620824
3	0x3c8eac95	0.017416278
4	0x3d73b5cd	0.05949955
5	0x3dc578d8	0.0964219
6	0xbdabd6a1	-0.083905466
7	0x3d7f563e	0.062338106
8	0x3d5b975d	0.05361115
9	0x3d92bfdb	0.071655
10	0xbd8d89fa	-0.069110826
11	0x3d7cb2d5	0.061693985
12	0xbdac2c8e	-0.08406936
13	0xbd385d24	-0.0450107
14	0xbd9a2d74	-0.07528201
15	0x3d3b9aae	0.04580181
16	0x3d483fd8	0.04888901
17	0xbc900879	-0.017582165
18	0xbd9f2d76	-0.07772343
19	0x3db0bc69	0.086296864
20	0xbd8cb2df	-0.068700545
21	0xbd57c404	-0.05267717
22	0x3d3f4e9b	0.046705823
23	0xbc1dd624	-0.009633575
24	0x3d6da597	0.058019247
25	0xbc32c137	-0.010910324
26	0x3da2a213	0.079410695
27	0x3cf75072	0.030189727
28	0xbc74d196	-0.014942547
29	0x3d194394	0.037417963
30	0x3d064460	0.03278005
31	0xbd4b9bbd	-0.04970907
32	0x3bc42282	0.005985559
33	0x3d00bbab	0.031428974
34	0xbd026cb2	-0.03184194
35	0x3d60cb74	0.054881528
36	0xbdbda162	-0.09259297
37	0x3d4b75a4	0.049672738
38	0xbdb047cb	-0.086074434
39	0x3d0e9bcf	0.03481656
40	0x3d0e4075	0.03472944
41	0x3d460cba	0.04835198
42	0x3cce70f5	0.025200346
43	0x3d8bbe22	0.06823374
44	0xbc84dce5	-0.016218612
45	0xbc25f05a	-0.010128105
46	0xbc06bb50	-0.00822337
47	0x3d82157f	0.06351756
48	0xbc8e7da2	-0.01739389
49	0x3dac88c9	0.08424527
50	0x3d25a3a1	0.04043925
51	0xbd0c97b1	-0.03432435
52	0x3d792826	0.060829304
53	0x3dc1cf30	0.09463346
54	0xbd8378e7	-0.06419545
55	0x3c8b7dba	0.017027725
56	0x3d5e2190	0.054231226
57	0x3d9fbf70	0.07800186
58	0xbc9e5424	-0.01932723
59	0x3c77d0a7	0.01512543
60	0xbc69a7a6	-0.014261162
61	0xbd8b13ae	-0.06790863
62	0xbcb060a0	-0.02153045
63	0xbbca5cd1	-0.0061756154
64	0xbd56e49a	-0.052464105
65	0xbcbc2fa8	-0.022971943
66	0x3d670ea6	0.056410454
67	0xbda4b448	-0.080421984
68	0x3d87ab6d	0.06624494
69	0xbd893ff7	-0.067016535
70	0x3d8a700e	0.06759654
71	0x3d63e491	0.0556379
72	0xbd6e40cd	-0.058167268
73	0xbd582087	-0.052765395
74	0x3cd82e6f	0.026389329
75	0x3d825628	0.06364089
76	0x3d09d46a	0.03364984
77	0xbda561e2	-0.0807531
78	0xbd18cfca	-0.037307538
79	0xbd1316f9	-0.03591058
80	0xbd265c19	-0.040615175
81	0xbd3c66a9	-0.04599634
82	0x3c9e058f	0.01928976
83	0x3ba0c345	0.0049060904
84	0x3cbe1d31	0.023207279
85	0xbd99cfb4	-0.07510319
86	0x3d5d2e62	0.053999312
87	0xbcb89b6f	-0.022535054
88	0x3c5e59ec	0.013571244
89	0x3d89e029	0.06732208
90	0x3d1c72f9	0.038195584
91	0xbd9ad0a5	-0.07559327
92	0xbcdcf298	-0.026971146
93	0x3d1244cd	0.035710145
94	0xbbcb9701	-0.0062130694
95	0xbdb011d7	-0.08597153
96	0xbd52fc7f	-0.05151033
97	0xbd7eb8a3	-0.062187802
98	0x3da18c2a	0.07888062
99	0xbc808d41	-0.015692355
100	0x3d23be46	0.03997638
101	0xbd81c507	-0.06336408
102	0xbc513af6	-0.012770405
103	0xbd0fb591	-0.035085265
104	0x3d7d2740	0.06180501
105	0x3d9bf65d	0.076153494
106	0xbd88a506	-0.06672101
107	0x3ccc9018	0.024971053
108	0xbd92013f	-0.07129144
109	0xbd5088aa	-0.050911583
110	0x3d8c1edb	0.06841823
111	0xbbdef16e	-0.006803683
112	0x3d6ca209	0.057771716
113	0x3cbd4795	0.023105422
114	0xbd8c4f82	-0.068511024
115	0xbd4de0ab	-0.05026309
116	0xbca88879	-0.020572888
117	0x3d02261a	0.031774618
118	0x3d3b39f9	0.045709584
119	0x3d458a04	0.048227325
120	0xbca05e65	-0.01957626
121	0x3cf967f7	0.030445082
122	0xbccc6796	-0.024951737
123	0xbd38bc5b	-0.045101505
124	0xbd81c890	-0.063370824
125	0x3d0bd511	0.034138743
126	0x3d23f5e8	0.040029436
127	0x3d9e15cb	0.077190004
128	0x3d4ec129	0.05047718
129	0x3da03866	0.07823257
130	0x3da1ac16	0.07894151
131	0x3d0821d3	0.033235382
132	0x3c917152	0.01775423
133	0x3d0be37c	0.034152493
134	0x3db026a7	0.08601122
135	0x3d020264	0.03174056
136	0x3cd601d7	0.026123924
137	0x3c183178	0.009289138
138	0xbd1dbe1e	-0.038511388
139	0xbc08880e	-0.008333219
140	0xbd34db87	-0.04415467
141	0xbd044493	-0.03229196
142	0x3d7355ad	0.05940788
143	0x3d978182	0.073977485
144	0xbd7de403	-0.061985027
145	0x3d0ff29d	0.035143483
146	0x3c3bd169	0.0114635015
147	0x3da53a59	0.080677696
148	0x3cebb019	0.028770493
149	0xbbb539cc	-0.0055305716
150	0xbdafe805	-0.08589176
151	0x3c0a729e	0.008450178
152	0xbd21aa5e	-0.039469115
153	0x3d442378	0.047885388
154	0x3c84734e	0.016168263
155	0xbc5ae1e1	-0.013359518
156	0x3a914a27	0.0011084721
157	0xbbc7c8af	-0.0060969214
158	0x3d09178e	0.03346973
159	0x3cb80deb	0.022467574
160	0x3d89ecfa	0.06734653
161	0x3b4805de	0.0030521075
162	0xbd8ed171	-0.069735415
163	0xbd33ef41	-0.043929342
164	0x3ae21dc4	0.0017251302
165	0xbd38ef19	-0.045149896
166	0x3c1e19a8	0.009649672
167	0x3dc084de	0.094003424
168	0xbd74d42e	-0.059772663
169	0x3d581747	0.052756574
170	0x3d830e56	0.06399219
171	0xbd0a094b	-0.03370027
172	0xbd4f1092	-0.050552912
173	0x3d99a74f	0.07502615
174	0x3dac35e1	0.08408714
175	0xbd42ffb2	-0.04760713
176	0x3dbc9291	0.09207643
177	0x3d477c28	0.04870239
178	0x3d03669b	0.032080274
179	0x3d8736fe	0.06602286
180	0xbd5df718	-0.054190725
181	0x3cb3fee9	0.021972137
182	0xbd845c3f	-0.06462907
183	0xbd292649	-0.041296277
184	0xba8d42a3	-0.0010777306
185	0x3db7f600	0.08982468
186	0xbd910a32	-0.07082023
187	0x3d849382	0.064734474
188	0xbd96bd82	-0.073603645
189	0x3d8e371d	0.06944106
190	0xbd762b56	-0.060099922
191	0x3d9d91d1	0.07693828
192	0x3d27180f	0.04079443
193	0xbd9ae5ec	-0.07563385
194	0xbd9ffbac	-0.078116745
195	0xbb0a6758	-0.0021118727
196	0x3ce906bc	0.028445594
197	0xbcce07b9	-0.025150167
198	0x3d77885e	0.060432784
199	0xbd8ca572	-0.06867494
200	0x3dbf92b8	0.09354156
201	0xbdb51e44	-0.08843663
202	0x3b089b33	0.002084446
203	0xbd831548	-0.064005435
204	0xbc6909a7	-0.014223493
205	0xbd6bcbe8	-0.057567507
206	0xbd02a648	-0.03189686
207	0xbd3a4f51	-0.0454858
208	0x3cf10f7d	0.02942633
209	0xbcd827e2	-0.026386205
210	0x3c321190	0.010868445
211	0xbd7c5b16	-0.061610304
212	0xbda7797d	-0.08177469
213	0x3dbc7f96	0.092040226
214	0x3d71fbf8	0.059078187
215	0xbd2582db	-0.040407997
216	0x3dbc858a	0.09205158
217	0xbc9ef5ae	-0.019404259
218	0x3d9ab21a	0.075535014
219	0xbd55a33d	-0.05215763
220	0xbd0e4bd4	-0.034740284
221	0x3db10148	0.086428225
222	0xbc4fab80	-0.012675166
223	0x3ba4fe71	0.0050352146
224	0x3d761efb	0.06008814
225	0xbd1ffd34	-0.039059833
226	0x3d639820	0.055565
227	0x3da5b007	0.08090215
228	0x3d3cef93	0.046126913
229	0x3d460d9c	0.048352823
230	0xbdb471f3	-0.088107966
231	0xbd40530a	-0.046954192
232	0xbbf22846	-0.007390055
233	0xbd12a6d7	-0.035803642
234	0x3c73fd39	0.014891916
235	0xbb620592	-0.0034488183
236	0xbbd5cc73	-0.0065246164
237	0x3db1604a	0.08660944
238	0x3c52096f	0.012819632
239	0xbd44db6f	-0.04806083
240	0xbd3f63b4	-0.046725944
241	0x3d481567	0.048848536
242	0x3dc51b4b	0.09624346
243	0xbd68af4b	-0.056807797
244	0xbdb22e5d	-0.08700249
245	0x3dc21563	0.094767354
246	0x3dc18c54	0.094505936
247	0x3d38d202	0.045122154
248	0xbd4df357	-0.050280895
249	0x3db2d1c5	0.087314166
250	0xbd4c2ab5	-0.049845416
251	0x3db0c4b2	0.08631267
252	0x3cc95678	0.024577364
253	0x3d0ff936	0.035149775
254	0xbd1af7bc	-0.037833914
255	0x3da4576a	0.080244854

forward_layers.2.bias f4 [128]
0	0xbd4a7d19	-0.04943571
1	0x3d8a5445	0.067543544
2	0x3d179d12	0.03701503
3	0xbca31b0c	-0.019910358
4	0x3d35dfbe	0.04440283
5	0x3d6ac240	0.057314157
6	0x3da257f2	0.079269305
7	0x39084e3c	0.00012999115
8	0x3c0587a9	0.00815002
9	0x3c438d8c	0.011935603
10	0xbd50d838	-0.050987452
11	0xbccd7041	-0.02507794
12	0xbd5bf76c	-0.053702757
13	0xbd3713e6	-0.04469671
14	0xbc15f1c6	-0.009151882
15	0xbc5370ae	-0.012905283
16	0x3db1fac8	0.08690411
17	0x3d5dd0de	0.05415427
18	0x3cc149d6	0.023594778
19	0xbd676146	-0.05648925
20	0x39950458	0.0002842273
21	0xbd3dded7	-0.046355095
22	0x3c9e9f31	0.019363018
23	0xbd83c8e2	-0.064348
24	0xbdb23a97	-0.087025814
25	0x3d660e9c	0.056166276
26	0x3db57529	0.08860237
27	0xbd799b1b	-0.060938936
28	0x3d07cb7e	0.03315305
29	0xbca9d574	-0.020731665
30	0xbd549bad	-0.051906276
31	0x3ce052ed	0.027383292
32	0xbc97c569	-0.01852675
33	0xbda6ed50	-0.081507325
34	0x3dab4b0a	0.08363922
35	0x3d24b0f4	0.04020782
36	0xbd979ea4	-0.07403305
37	0xbdaa2170	-0.08307159
38	0xbce98076	-0.028503638
39	0x3d3cf2d0	0.04613
40	0xbccc32d6	-0.024926584
41	0xbce78414	-0.028261222
42	0x3be0765c	0.006850047
43	0x3d8062f9	0.062688775
44	0xbda2d159	-0.07950086
45	0x3d939eac	0.07207999
46	0xbcd1a711	-0.025592359
47	0x3c740266	0.01489315
48	0x3da25bc1	0.07927657
49	0x3d6923b6	0.056918822
50	0xbd502865	-0.050819773
51	0xbca25edf	-0.019820629
52	0xbc878dba	-0.016547073
53	0xbd8cd3aa	-0.06876309
54	0xbcc9431f	-0.024568139
55	0xbd4f3317	-0.050585832
56	0xbd77cf32	-0.06050033
57	0x3d042bc7	0.03226831
58	0xbd36656e	-0.044530325
59	0xbc6bee20	-0.014400035
60	0xba8efc06	-0.0010908849
61	0x3d399686	0.045309566
62	0x3d251701	0.04030514
63	0xbd889535	-0.06669084
64	0xbd336fa7	-0.04380765
65	0x3dad0af6	0.08449356
66	0x3b921f42	0.0044592926
67	0xbd0938cd	-0.033501435
68	0x3d624cfc	0.0552492
69	0xbda9e601	-0.08295823
70	0x3c50ce97	0.012744567
71	0x3d275551	0.04085285
72	0xbd656c00	-0.0560112
73	0x3d9c3432	0.07627143
74	0x3d18f56d	0.03734343
75	0x3d322852	0.043495484
76	0xbbe954cc	-0.0071207043
77	0xbd748dd6	-0.059705578
78	0x3d30b15e	0.0431379
79	0xbd8ade46	-0.067806765
80	0xbccc8f61	-0.024970712
81	0xbbf819de	-0.007571443
82	0x3cf2ae6c	0.029624186
83	0xbd4b8c18	-0.04969415
84	0x3c384bc1	0.01124853
85	0xbb1cb885	-0.0023913693
86	0xbd2fb612	-0.042898245
87	0x3ab58a81	0.0013850481
88	0xbd322b34	-0.043498233
89	0x3d52b73e	0.051444285
90	0x3d244576	0.040105306
91	0xbc851558	-0.016245529
92	0x3d88295b	0.06648513
93	0x3d52d19a	0.051469423
94	0x3d24d8bc	0.040245757
95	0xbd50e997	-0.05100402
96	0x3d84af37	0.06478732
97	0x3db62003	0.088928245
98	0xbd974c66	-0.07387619
99	0xbd42077f	-0.04737043
100	0x3d4b91bb	0.049699526
101	0x3d00be99	0.031431768
102	0x3daba35d	0.083807684
103	0x3d832155	0.06402842
104	0x3b81934d	0.003954327
105	0xbd87147a	-0.065957025
106	0x3da810f8	0.082063615
107	0xbd2c6ba6	-0.04209485
108	0x3cb82f24	0.022483416
109	0x3cdbd95b	0.026837042
110	0x3d114601	0.03546715
111	0x3d32b574	0.04363008
112	0x3da75b29	0.08171684
113	0xbd7dd0b1	-0.0619666
114	0x3d3b006b	0.045654695
115	0xbc172fdf	-0.009227722
116	0xbd2a94e5	-0.041645903
117	0xbc131f71	-0.008979664
118	0xbd245377	-0.04011866
119	0xbd7d9630	-0.061910808
120	0x3d24483d	0.040107954
121	0xbafc8e3e	-0.0019268466
122	0xbda8b511	-0.08237661
123	0xbb78ef51	-0.003798444
124	0xbd8e1db5	-0.0693926
125	0xbd8f101a	-0.06985493
126	0x3c9801d1	0.018555554
127	0xbda44683	-0.080212615

forward_layers.4.weight f4 [128, 128]
0	0x39f041b9	0.00045825334
1	0xbd8546bd	-0.06507633
2	0x3a317001	0.0006768704
3	0xbdc07c0c	-0.0939866
4	0xbaf6e3cc	-0.0018836199
5	0x3da9f0dc	0.082978934
6	0x3db19d50	0.08672583
7	0x3da39e8c	0.07989225
8	0x3cbcaad5	0.023030678
9	0x3dbd6957	0.092486076
10	0xbcf583dd	-0.029970104
11	0x3a200a0f	0.00061050145
12	0x3ce3efd5	0.027824322
13	0xbc974e1d	-0.018469865
14	0xbd071646	-0.032980226
15	0x3cb4993a	0.02204572
16	0xbd8d4f0f	-0.06899845
17	0xbd531ca7	-0.051540997
18	0x3c0e706f	0.008693798
19	0xbcdaf295	-0.026727
20	0x3d1f7d40	0.038937807
21	0xbd929d0a	-0.07158859
22	0x3ca77600	0.020442009
23	0xbd3beb44	-0.045878664
24	0xbda01ad7	-0.07817619
25	0xbccf6bf3	-0.025320029
26	0xbda06181	-0.078310974
27	0x3d722506	0.05911734
28	0xbd9a388c	-0.07530317
29	0x3d56ace4	0.052410975
30	0xbd935e73	-0.07195749
31	0x3d17df68	0.03707829
32	0xbd0feb44	-0.035136476
33	0xbd898f53	-0.0671679
34	0xbd8e4238	-0.06946224
35	0x3d9c942c	0.07645449
36	0x3dcf2d72	0.1011609
37	0x3d97381c	0.07383749
38	0x3d5dee4f	0.054182347
39	0xbc9eda1f	-0.019391118
40	0xbd6506f6	-0.05591484
41	0x3d48b4bc	0.049000487
42	0x3d213435	0.03935643
43	0xbd1f39fc	-0.038873658
44	0xbc445cf9	-0.011985057
45	0xbd126732	-0.035742946
46	0x3d4b4c6d	0.049633432
47	0x3d7b39ad	0.0613343
48	0xbd8b5f00	-0.06805229
49	0xbb280815	-0.0025639583
50	0xbd8826b8	-0.0664801
51	0x3cebd176	0.028786402
52	0xbd9ca6ce	-0.07649003
53	0xbd9ac416	-0.07556932
54	0xbcd76055	-0.026291052
55	0x3d9eb461	0.07749248
56	0x3d0807ea	0.033210672
57	0x3c66f131	0.01409559
58	0x3cf67806	0.030086529
59	0xbd4bba5b	-0.04973827
60	0xbc6b7f39	-0.014373594
61	0xbc6a7280	-0.0143095255
62	0x3ce6cc72	0.028173659
63	0x3d63e7b6	0.0556409
64	0xbd486ea8	-0.048933655
65	0xbd7995d0	-0.060933888
66	0x3d288792	0.041144915
67	0x3c4b9081	0.012424589
68	0x3b3ef362	0.0029136767
69	0x3ca049d2	0.01956645
70	0x3d87b569	0.06626398
71	0xbd9d00c3	-0.07666161
72	0xbdb2add2	-0.0872456
73	0x3c363e48	0.011123247
74	0x3d1f99d4	0.03896506
75	0xbd38c0b2	-0.045105644
76	0x3dd247a8	0.102675736
77	0x3be3d818	0.0069532506
78	0x3cad6526	0.021166395
79	0xbb0669a0	-0.0020509735
80	0x3d00121a	0.031267263
81	0x3bc6174a	0.0060452567
82	0xbce77abf	-0.028256772
83	0x3c0e0635	0.008668472
84	0x3db68df5	0.08913795
85	0x3ca6832b	0.020326218
86	0xbc53a875	-0.012918581
87	0x3d094f0c	0.03352265
88	0xbcf74e29	-0.030188637
89	0xbd4cb85d	-0.04998051
90	0x3d5fa8ff	0.054604527
91	0xbd903dfc	-0.070430726
92	0xbcaa0c15	-0.020757714
93	0xbd13ac65	-0.03605308
94	0xbd87e0f7	-0.066347055
95	0x3d8b7cda	0.06810923
96	0xbda9684d	-0.08271847
97	0xbca10cb8	-0.019659385
98	0x3cc450cf	0.023964314
99	0xbca7722e	-0.020440187
100	0xbc42de17	-0.011893771
101	0xbda6d7e4	-0.081466466
102	0x3da6b2e9	0.08139593
103	0x3d8eb81f	0.06968712
104	0xbda4f061	-0.08053661
105	0x3d0c412b	0.034241837
106	0x3bdacfa2	0.006677584
107	0x3db80262	0.089848295
108	0xbcd9107e	-0.026497122
109	0x3d507f36	0.050902568
110	0xbd84c4b5	-0.064828314
111	0x3d04848f	0.03235298
112	0x3db4870a	0.08814819
113	0xbbac1a8e	-0.005252189
114	0xbd17ce52	-0.037061997
115	0xbc8e5af0	-0.017377347
116	0xbd8d2470	-0.068917155
117	0x3c65650a	0.01400114
118	0x3d897a3b	0.06712767
119	0xbc14cb31	-0.009081648
120	0x3d601890	0.054710925
121	0x3d48f50f	0.04906183
122	0x3da7a9bc	0.08186671
123	0x3d99bae3	0.07506349
124	0x3d4780cd	0.04870682
125	0x3c00b4a0	0.007855564
126	0xbd52c788	-0.05145982
127	0xbc83660b	-0.016039869
128	0x3d794cb1	0.060864154
129	0xbd2d67ec	-0.042335436
130	0x3d194512	0.037419386
131	0x3d52090e	0.051278166
132	0xbd1fa2d2	-0.038973637
133	0xbd8f4079	-0.06994719
134	0xbd90016a	-0.0703152
135	0x3d617ffc	0.055053696
136	0xbc350c48	-0.011050291
137	0x3c3c1a1f	0.011480837
138	0x3c1eb826	0.009687459
139	0xbdc0ffa2	-0.09423758
140	0x3d5f9187	0.054582145
141	0xbd91b1b1	-0.0711397
142	0xbd24c4e5	-0.040226836
143	0xbc81df09	-0.015853422
144	0x3c7f4666	0.015580749
145	0xbcc48f4f	-0.023994116
146	0x3caffda0	0.021483243
147	0xbd148a3f	-0.036264654
148	0x3d189dd5	0.037259895
149	0x3cbb953f	0.022898315
150	0x3d50c740	0.05097127
151	0xbd7e13b3	-0.062030505
152	0x3c06cf72	0.00822817
153	0x3d1dafbf	0.038497683
154	0xbd2afaaf	-0.041742977
155	0xbd27c113	-0.040955614
156	0xbd283142	-0.0410626
157	0xbd2954bc	-0.041340575
158	0xbd9570f5	-0.072969355
159	0x3d4bdc75	0.04977079
160	0x3dab7d9f	0.0837357
161	0x3d8df4fe	0.06931494
162	0x3a65e01a	0.00087690505
163	0xba33300b	-0.0006835467
164	0x3be4c8af	0.006981931
165	0x3d2e5cbc	0.042568907
166	0xbd6ac050	-0.05731231
167	0xbd95d509	-0.07316024
168	0xbdd23b42	-0.10265209
169	0xbdb6e89b	-0.08931085
170	0x3da30c07	0.079612784
171	0x3d9143bd	0.07092998
172	0x3d09f005	0.033676166
173	0xbda03fea	-0.07824691
174	0xbd43bab7	-0.047785487
175	0xbd4c8d9c	-0.049939737
176	0xbd4e1f35	-0.05032273
177	0xbd568f8e	-0.052383
178	0x3d2844e8	0.04108134
179	0x3c0a8ffe	0.008457182
180	0x3c8a24ab	0.016863188
181	0x3dba0d60	0.09084582
182	0x3d0aa337	0.03384706
183	0xbd957ef1	-0.07299603
184	0xbd90eda6	-0.07076578
185	0x3d99bf0f	0.07507145
186	0xbd1e2d95	-0.03861769
187	0x3d846b8e	0.06465827
188	0xbd1619f4	-0.036645845
189	0xbd36b8da	-0.044609882
190	0xbbf698c8	-0.007525537
191	0xbdbdfd32	-0.09276809
192	0xbd538ace	-0.051646046
193	0x3c40422c	0.011734527
194	0xbda4d3e4	-0.080482274
195	0x3bb111c1	0.0054037278
196	0xbdce823a	-0.100834325
197	0xbd97ed09	-0.07418258
198	0x3a89c0be	0.0010509712
199	0xbab61d73	-0.0013894275
200	0xbd24348a	-0.040089168
201	0xbd9d140b	-0.076698385
202	0x3d5c7d25	0.053830285
203	0x3c86d87f	0.016460655
204	0x3d5b71b0	0.053575218
205	0xbd031f45	-0.032012243
206	0xbd706bac	-0.058696434
207	0xbd6e74b6	-0.058216773
208	0xbd8b6d83	-0.06807997
209	0xbcefd2f6	-0.029275399
210	0x3d7ac154	0.06121953
211	0x3d2dedd1	0.042463128
212	0x3d8b5d91	0.06804956
213	0x3c4a857c	0.012360927
214	0x3d9e1bf0	0.077201724
215	0xbd1f323a	-0.03886626
216	0xbc581713	-0.013189095
217	0xbc98c732	-0.018649671
218	0xbda190d6	-0.078889534
219	0x3d2cd5fc	0.04219626
220	0xbc1d0aac	-0.009585064
221	0xbd82d63b	-0.063885175
222	0x3af6df8a	0.001883493
223	0xbd96341d	-0.073341586
224	0xbcf94733	-0.030429458
225	0xbd71ff62	-0.059081443
226	0xbd82df14	-0.06390205
227	0xbd4fc050	-0.050720513
228	0x3d80aa93	0.062825345
229	0x3cc15c7a	0.023603667
230	0x3d8af878	0.06785673
231	0xbab2e8a3	-0.0013649653
232	0x3d97c496	0.07410543
233	0xbcf55b0d	-0.029950643
234	0xbd86c2d7	-0.065801315
235	0xbce2d8a9	-0.027691202
236	0x3d115c48	0.035488397
237	0x3d7a6aaa	0.06113688
238	0xbcc9133d	-0.024545306
239	0x3d52941c	0.05141078
240	0xbae25431	-0.0017267523
241	0x3d38cf49	0.045119558
242	0x3d494b01	0.049143795
243	0xbd2882c1	-0.04114032
244	0xbd942530	-0.072336555
245	0xbbec5bb7	-0.0072130817
246	0xbbff7782	-0.007796229
247	0xbd847c5e	-0.06469034
248	0x3d3cba10	0.04607588
249	0xbdbd4191	-0.092410214
250	0xbc0abd63	-0.008468005
251	0xbd8c70e7	-0.06857472
252	0x3cbe7120	0.023247302
253	0x3d8bd261	0.06827236
254	0x3d8c39f9	0.06846995
255	0xbd3b28ea	-0.045693316

forward_layers.4.bias f4 [128]
0	0x3d77022f	0.060304817
1	0xbd7960e7	-0.06088343
2	0x3d889908	0.066698134
3	0xbd9239e5	-0.07139949
4	0x3d08313e	0.033250086
5	0xbd6db4b6	-0.058033668
6	0xbbf406ea	-0.0074471133
7	0x3c39a050	0.011329725
8	0x3d2ed250	0.04268104
9	0x3cda4978	0.02664636
10	0x3d0d5359	0.034503315
11	0xbd21ec85	-0.039532203
12	0x3bfc8f84	0.007707538
13	0xbd8ce00c	-0.06878671
14	0x3db39341	0.08768321
15	0x3d96f509	0.073709555
16	0xbd9f9d53	-0.07793679
17	0xbd6ed5f8	-0.058309525
18	0x3d6cb96e	0.057794027
19	0xbc243b2a	-0.010023871
20	0xbce6c648	-0.02817072
21	0xbd199b15	-0.037501413
22	0xbd788c2e	-0.06068056
23	0x3b25731c	0.0025245612
24	0xbca68438	-0.020326719
25	0xbc8bbb26	-0.017057013
26	0xbda3306a	-0.079682186
27	0xbd4ecf42	-0.050490625
28	0xbd3eef63	-0.046615016
29	0xbd7dfc79	-0.062008355
30	0x3d8197cd	0.06327782
31	0x3d475807	0.048667934
32	0x3d557489	0.05211309
33	0xbd69a735	-0.057044227
34	0x3cebd7a2	0.028789345
35	0x3b3d6cf4	0.0028904052
36	0xbd0ce850	-0.034401238
37	0x3d25f841	0.040519956
38	0x3d96361a	0.07334538
39	0xbcd3a303	-0.025834566
40	0xbd4b2a8d	-0.049601126
41	0xbcddfb70	-0.027097434
42	0x3d4a580a	0.049400367
43	0xbd382615	-0.044958193
44	0x3d4752fb	0.04866312
45	0x3cb96c59	0.022634672
46	0xbc22a7de	-0.009927718
47	0x3d3cd5a7	0.046102192
48	0x3d874529	0.06604988
49	0x3c265e4a	0.010154316
50	0xbc9d6011	-0.019210847
51	0x3d7584cc	0.059941098
52	0xbc744c41	-0.0149107585
53	0xbd520620	-0.051275373
54	0xbd09ee00	-0.03367424
55	0xbd5c6431	-0.053806487
56	0xbcea84eb	-0.028627833
57	0xbc85ffc4	-0.01635731
58	0x3d0d7a3f	0.03454041
59	0x3d939443	0.07206013
60	0xbcee00ee	-0.029053178
61	0x3db1261f	0.08649849
62	0x3db59254	0.088658005
63	0xbb70188e	-0.003663573
64	0x3daa26df	0.08308195
65	0x3dac2f35	0.084074415
66	0xbd443165	-0.04789867
67	0xbd7b62d4	-0.061373547
68	0xbb3b3a58	-0.002856871
69	0xbc994eca	-0.018714327
70	0xba496fbc	-0.0007684191
71	0xbd6d30a2	-0.057907708
72	0x3d322376	0.04349085
73	0x3d600139	0.054688666
74	0x3d05942c	0.03261201
75	0x3d801f91	0.06256021
76	0xbcc627cf	-0.024188904
77	0x3dae5caf	0.08513772
78	0xbd14dba4	-0.036342278
79	0xbd1239d6	-0.035699688
80	0x3d21a115	0.03946026
81	0xbd09e4a4	-0.033665314
82	0x3d97fd39	0.07421345
83	0x3c602e5d	0.013682929
84	0xbd95b3ce	-0.07309686
85	0xbda74080	-0.08166599
86	0x3b390b3c	0.0028235456
87	0xbd8a0c7a	-0.06740661
88	0xbbc55af8	-0.006022807
89	0x3d183b3f	0.037165876
90	0x3d15fc1a	0.036617376
91	0x3c7001ba	0.014648849
92	0xbcfaf35a	-0.030633617
93	0xbdb149fa	-0.08656688
94	0xb9db54ce	-0.0004183412
95	0xbc5047b0	-0.012712404
96	0x3d2fe4ad	0.04294269
97	0xbb468faa	-0.0030298033
98	0x3c9c4447	0.019075526
99	0x3b0ce9ea	0.0021501728
100	0x3b9b1277	0.004732426
101	0xbd931a67	-0.0718277
102	0xbdabed75	-0.08394901
103	0xbda0c3b4	-0.078498274
104	0x3d84bfa8	0.06481868
105	0x3d2572aa	0.040392555
106	0xbd2b1a54	-0.041773155
107	0x3da35218	0.079746425
108	0xbd9c7914	-0.07640281
109	0xbd82d61c	-0.06388494
110	0x3ccf1d81	0.025282623
111	0x3d641dfb	0.055692654
112	0x3a274c57	0.000638192
113	0x3c77001b	0.015075709
114	0x3d42f8f0	0.047600687
115	0xbd8b30aa	-0.06796391
116	0x3db12cf4	0.08651152
117	0xbd555b98	-0.052089304
118	0xbc8362bb	-0.01603829
119	0xbd93faeb	-0.07225593
120	0x3d750261	0.05981672
121	0x3d9ad550	0.075602174
122	0xbcb4d002	-0.022071842
123	0xbb513b1c	-0.00319261
124	0xbca05515	-0.01957182
125	0x3a8121d0	0.0009851996
126	0xbd6bd26a	-0.057573713
127	0xbccd61ed	-0.025071109

forward_layers.6.weight f4 [1, 128]
0	0x3dae0af7	0.08498185
1	0xbd20cb4a	-0.03925637
2	0xbc4a726b	-0.012356381
3	0xbcef9047	-0.029243601
4	0x3d79a6e3	0.06095017
5	0x3dc188b8	0.09449905
6	0xbd354348	-0.044253618
7	0xbd9ca689	-0.076489516
8	0x3d08fd48	0.033444673
9	0x3d09d34a	0.033648767
10	0x3daeb34f	0.08530294
11	0xbd3165ad	-0.043309856
12	0x3d674476	0.056461774
13	0x3dc169db	0.094440185
14	0x3d308ba8	0.043101937
15	0x3bb87eca	0.005630349
16	0xbd980bef	-0.07424151
17	0x3cd5eec9	0.026114838
18	0xbd229ae7	-0.039698508
19	0xbdc248e6	-0.094865605
20	0x3d4dac12	0.050212927
21	0xbdc90809	-0.09815986
22	0xbc44d9ff	-0.012014865
23	0xbcb0b7d9	-0.02157204
24	0x3dacaa5c	0.08430931
25	0xbd12934c	-0.035785004
26	0xbd4a56a7	-0.049399044
27	0x3d85b747	0.06529098
28	0xbd91407b	-0.07092377
29	0xbd303c2c	-0.043026134
30	0xbd8f615a	-0.0700099
31	0x3c149458	0.009068571
32	0xbd04ca3e	-0.032419436
33	0xbdd0e016	-0.10198991
34	0x3cc4119f	0.023934184
35	0xbd88637f	-0.066596024
36	0x3c956a82	0.018239263
37	0xbd9d5f54	-0.07684198
38	0xbda4ff83	-0.080565475
39	0xbd072b00	-0.032999992
40	0xbba548e4	-0.0050440896
41	0xbc5af948	-0.013365097
42	0xbd12986d	-0.035789896
43	0x3d01945b	0.031635623
44	0x3dafa838	0.08577007
45	0x3d7d5dff	0.06185722
46	0x3cdc8ba4	0.026922055
47	0xbca25242	-0.019814614
48	0x3cdefb54	0.027219452
49	0xbc529eaf	-0.012855216
50	0x3dc0a4cc	0.094064325
51	0x3d6ffc54	0.05859025
52	0xbd95ad22	-0.07308413
53	0x3c1974bb	0.00936621
54	0x3d804800	0.06263733
55	0x3d1ed583	0.03877784
56	0xbdb6cf00	-0.08926201
57	0x3dc5baaf	0.09654748
58	0xbd924cb8	-0.07143539
59	0xbcb81b47	-0.022473944
60	0xbcb6cf79	-0.022315728
61	0x3ce6c26b	0.028168878
62	0x3d562c9a	0.05228863
63	0x3db206e5	0.08692721
64	0x3cb19723	0.021678513
65	0xbd766164	-0.060151473
66	0x3d940c0f	0.072288625
67	0x3d11caca	0.035593785
68	0xbd552cd4	-0.052044705
69	0xbd135e77	-0.03597876
70	0xbd4e7bf5	-0.050411183
71	0xbdcac5ff	-0.09901046
72	0xbd24d4db	-0.040242057
73	0xbc6e24a9	-0.014535108
74	0xbd335762	-0.043784507
75	0x3d6ae5c6	0.057348035
76	0xbd6ca736	-0.057776652
77	0xbd456bd0	-0.04819852
78	0xbc21f128	-0.009884156
79	0xbd84e0e3	-0.06488206
80	0x3d15fae2	0.036616214
81	0x3d727414	0.059192732
82	0xbd51b772	-0.051200338
83	0xbd43e177	-0.047822442
84	0x3d5c6e94	0.053816393
85	0xbd9193eb	-0.07108291
86	0xbdbb15aa	-0.091349915
87	0xbdc5808c	-0.09643659
88	0xbd970f4c	-0.073759645
89	0xbda02b3c	-0.07820746
90	0x3da8a9ea	0.082355335
91	0xbd080bb2	-0.03321428
92	0xbd43a99a	-0.047769167
93	0xbc1f51a3	-0.009724054
94	0xbd45deb1	-0.04830808
95	0x3d82d823	0.06388881
96	0xbd5d7287	-0.0540643
97	0x3d72c213	0.059267115
98	0xbdba89b2	-0.091082945
99	0x3d3578c4	0.044304624
100	0x3da28912	0.079363
101	0xbd34ef86	-0.04417374
102	0xbd23f182	-0.04002524
103	0xbdb54fa9	-0.088530846
104	0xbd02a1ed	-0.031892706
105	0xbd9cd237	-0.07657283
106	0xbd2bed6f	-0.04197448
107	0x3dc266d0	0.09492266
108	0xbc408330	-0.011750028
109	0xbce25923	-0.027630394
110	0xbd950b49	-0.07277543
111	0x3c8b8665	0.017031858
112	0x3cee1028	0.029060438
113	0x3d701ea8	0.058622986
114	0x3d5684e1	0.052372817
115	0x3dd5e73b	0.10444494
116	0xbd4a55c2	-0.04939819
117	0xbdb6c192	-0.08923639
118	0x3c790ebc	0.015201267
119	0xbda5ae41	-0.08089877
120	0xbd0748ec	-0.033028528
121	0xbd315872	-0.04329724
122	0xbdc06394	-0.09393993
123	0x3d7db165	0.061936755
124	0x3d507b22	0.05089868
125	0x3da799fa	0.081836656
126	0x3dcdfb42	0.10057689
127	0xbd6d19bc	-0.05788587
